RandomNetwork(
  (layers): Sequential(
    (0): Linear(in_features=3, out_features=120, bias=True)
    (1): Hardshrink(0.5)
    (2): Linear(in_features=120, out_features=20, bias=True)
    (3): ELU(alpha=1.0)
    (4): Linear(in_features=20, out_features=14, bias=True)
    (5): Softplus(beta=1, threshold=20)
    (6): Linear(in_features=14, out_features=164, bias=True)
    (7): SELU()
    (8): Linear(in_features=164, out_features=109, bias=True)
    (9): Identity()
    (10): Linear(in_features=109, out_features=18, bias=True)
    (11): Mish()
    (12): Linear(in_features=18, out_features=8, bias=True)
    (13): LeakyReLU(negative_slope=0.01)
    (14): Linear(in_features=8, out_features=20, bias=True)
    (15): Identity()
    (16): Linear(in_features=20, out_features=13, bias=True)
    (17): PReLU(num_parameters=1)
    (18): Linear(in_features=13, out_features=181, bias=True)
    (19): SELU()
    (20): Linear(in_features=181, out_features=1, bias=True)
    (21): Softshrink(0.5)
  )
)