RandomNetwork(
  (layers): Sequential(
    (0): Linear(in_features=3, out_features=7, bias=True)
    (1): GELU(approximate='none')
    (2): Linear(in_features=7, out_features=84, bias=True)
    (3): Hardsigmoid()
    (4): Linear(in_features=84, out_features=80, bias=True)
    (5): Hardtanh(min_val=-1.0, max_val=1.0)
    (6): Linear(in_features=80, out_features=83, bias=True)
    (7): Sigmoid()
    (8): Linear(in_features=83, out_features=77, bias=True)
    (9): Sigmoid()
    (10): Linear(in_features=77, out_features=82, bias=True)
    (11): Hardshrink(0.5)
    (12): Linear(in_features=82, out_features=83, bias=True)
    (13): ReLU()
    (14): Linear(in_features=83, out_features=11, bias=True)
    (15): LeakyReLU(negative_slope=0.01)
    (16): Linear(in_features=11, out_features=79, bias=True)
    (17): Softshrink(0.5)
    (18): Linear(in_features=79, out_features=90, bias=True)
    (19): Sigmoid()
    (20): Linear(in_features=90, out_features=1, bias=True)
    (21): Identity()
  )
)