RandomNetwork(
  (layers): Sequential(
    (0): Linear(in_features=3, out_features=10, bias=True)
    (1): ReLU()
    (2): Linear(in_features=10, out_features=6, bias=True)
    (3): Softplus(beta=1, threshold=20)
    (4): Linear(in_features=6, out_features=106, bias=True)
    (5): Tanhshrink()
    (6): Linear(in_features=106, out_features=19, bias=True)
    (7): Softplus(beta=1, threshold=20)
    (8): Linear(in_features=19, out_features=120, bias=True)
    (9): SELU()
    (10): Linear(in_features=120, out_features=104, bias=True)
    (11): Softplus(beta=1, threshold=20)
    (12): Linear(in_features=104, out_features=121, bias=True)
    (13): Softplus(beta=1, threshold=20)
    (14): Linear(in_features=121, out_features=15, bias=True)
    (15): GELU(approximate='none')
    (16): Linear(in_features=15, out_features=117, bias=True)
    (17): Softshrink(0.5)
    (18): Linear(in_features=117, out_features=173, bias=True)
    (19): RReLU(lower=0.125, upper=0.3333333333333333)
    (20): Linear(in_features=173, out_features=1, bias=True)
    (21): CELU(alpha=1.0)
  )
)