RandomNetwork(
  (layers): Sequential(
    (0): Linear(in_features=3, out_features=129, bias=True)
    (1): ReLU()
    (2): Linear(in_features=129, out_features=139, bias=True)
    (3): Sigmoid()
    (4): Linear(in_features=139, out_features=9, bias=True)
    (5): RReLU(lower=0.125, upper=0.3333333333333333)
    (6): Linear(in_features=9, out_features=174, bias=True)
    (7): Softsign()
    (8): Linear(in_features=174, out_features=15, bias=True)
    (9): GELU(approximate='none')
    (10): Linear(in_features=15, out_features=102, bias=True)
    (11): Hardswish()
    (12): Linear(in_features=102, out_features=156, bias=True)
    (13): ELU(alpha=1.0)
    (14): Linear(in_features=156, out_features=195, bias=True)
    (15): Hardshrink(0.5)
    (16): Linear(in_features=195, out_features=150, bias=True)
    (17): GELU(approximate='none')
    (18): Linear(in_features=150, out_features=1, bias=True)
    (19): GELU(approximate='none')
  )
)