RandomNetwork(
  (layers): Sequential(
    (0): Linear(in_features=3, out_features=136, bias=True)
    (1): Softplus(beta=1, threshold=20)
    (2): Linear(in_features=136, out_features=33, bias=True)
    (3): GELU(approximate='none')
    (4): Linear(in_features=33, out_features=23, bias=True)
    (5): RReLU(lower=0.125, upper=0.3333333333333333)
    (6): Linear(in_features=23, out_features=45, bias=True)
    (7): RReLU(lower=0.125, upper=0.3333333333333333)
    (8): Linear(in_features=45, out_features=125, bias=True)
    (9): Tanh()
    (10): Linear(in_features=125, out_features=146, bias=True)
    (11): LogSigmoid()
    (12): Linear(in_features=146, out_features=77, bias=True)
    (13): Tanhshrink()
    (14): Linear(in_features=77, out_features=145, bias=True)
    (15): LogSigmoid()
    (16): Linear(in_features=145, out_features=138, bias=True)
    (17): Softshrink(0.5)
    (18): Linear(in_features=138, out_features=15, bias=True)
    (19): RReLU(lower=0.125, upper=0.3333333333333333)
    (20): Linear(in_features=15, out_features=27, bias=True)
    (21): Softshrink(0.5)
    (22): Linear(in_features=27, out_features=1, bias=True)
    (23): Tanh()
  )
)