RandomNetwork(
  (layers): Sequential(
    (0): Linear(in_features=3, out_features=16, bias=True)
    (1): ReLU()
    (2): Linear(in_features=16, out_features=102, bias=True)
    (3): Hardshrink(0.5)
    (4): Linear(in_features=102, out_features=65, bias=True)
    (5): CELU(alpha=1.0)
    (6): Linear(in_features=65, out_features=41, bias=True)
    (7): CELU(alpha=1.0)
    (8): Linear(in_features=41, out_features=42, bias=True)
    (9): LeakyReLU(negative_slope=0.01)
    (10): Linear(in_features=42, out_features=76, bias=True)
    (11): Tanh()
    (12): Linear(in_features=76, out_features=71, bias=True)
    (13): LogSigmoid()
    (14): Linear(in_features=71, out_features=117, bias=True)
    (15): LogSigmoid()
    (16): Linear(in_features=117, out_features=66, bias=True)
    (17): GELU(approximate='none')
    (18): Linear(in_features=66, out_features=134, bias=True)
    (19): LeakyReLU(negative_slope=0.01)
    (20): Linear(in_features=134, out_features=18, bias=True)
    (21): Sigmoid()
    (22): Linear(in_features=18, out_features=1, bias=True)
    (23): GELU(approximate='none')
  )
)