RandomNetwork(
  (layers): Sequential(
    (0): Linear(in_features=3, out_features=65, bias=True)
    (1): Hardswish()
    (2): Linear(in_features=65, out_features=135, bias=True)
    (3): Tanhshrink()
    (4): Linear(in_features=135, out_features=111, bias=True)
    (5): RReLU(lower=0.125, upper=0.3333333333333333)
    (6): Linear(in_features=111, out_features=43, bias=True)
    (7): Tanhshrink()
    (8): Linear(in_features=43, out_features=94, bias=True)
    (9): Identity()
    (10): Linear(in_features=94, out_features=5, bias=True)
    (11): Softshrink(0.5)
    (12): Linear(in_features=5, out_features=28, bias=True)
    (13): Sigmoid()
    (14): Linear(in_features=28, out_features=14, bias=True)
    (15): RReLU(lower=0.125, upper=0.3333333333333333)
    (16): Linear(in_features=14, out_features=105, bias=True)
    (17): Hardtanh(min_val=-1.0, max_val=1.0)
    (18): Linear(in_features=105, out_features=76, bias=True)
    (19): Softsign()
    (20): Linear(in_features=76, out_features=80, bias=True)
    (21): Hardtanh(min_val=-1.0, max_val=1.0)
    (22): Linear(in_features=80, out_features=141, bias=True)
    (23): ELU(alpha=1.0)
    (24): Linear(in_features=141, out_features=1, bias=True)
    (25): Softsign()
  )
)