RandomNetwork(
  (layers): Sequential(
    (0): Linear(in_features=3, out_features=55, bias=True)
    (1): Mish()
    (2): Linear(in_features=55, out_features=119, bias=True)
    (3): Softplus(beta=1, threshold=20)
    (4): Linear(in_features=119, out_features=81, bias=True)
    (5): ELU(alpha=1.0)
    (6): Linear(in_features=81, out_features=42, bias=True)
    (7): SiLU()
    (8): Linear(in_features=42, out_features=19, bias=True)
    (9): LogSigmoid()
    (10): Linear(in_features=19, out_features=43, bias=True)
    (11): SiLU()
    (12): Linear(in_features=43, out_features=38, bias=True)
    (13): ReLU6()
    (14): Linear(in_features=38, out_features=68, bias=True)
    (15): Sigmoid()
    (16): Linear(in_features=68, out_features=143, bias=True)
    (17): Hardtanh(min_val=-1.0, max_val=1.0)
    (18): Linear(in_features=143, out_features=116, bias=True)
    (19): ReLU6()
    (20): Linear(in_features=116, out_features=69, bias=True)
    (21): SiLU()
    (22): Linear(in_features=69, out_features=1, bias=True)
    (23): GELU(approximate='none')
  )
)